…
[INFO] 2019-10-29 17:23:56 Training data shape (train_label):  (144, 4)
[INFO] 2019-10-29 17:23:56 Validating data shape (x_valid):  (36, 256, 256, 3)
[INFO] 2019-10-29 17:23:56 Validating data shape (valid_label):  (36, 4)
[INFO] 2019-10-29 17:23:56 Generado log en...  /Users/vmoctavio/Downloads/keras-tutorial/logs/pruebavidcon/borrar/CNN_1_20191029-172356
Model: "sequential"
_________________________________________________________________
Layer (type)                 Output Shape              Param #   
=================================================================
conv2d (Conv2D)              (None, 256, 256, 32)      896       
_________________________________________________________________
activation (Activation)      (None, 256, 256, 32)      0         
_________________________________________________________________
batch_normalization (BatchNo (None, 256, 256, 32)      128       
_________________________________________________________________
max_pooling2d (MaxPooling2D) (None, 85, 85, 32)        0         
_________________________________________________________________
dropout (Dropout)            (None, 85, 85, 32)        0         
_________________________________________________________________
conv2d_1 (Conv2D)            (None, 85, 85, 64)        18496     
_________________________________________________________________
activation_1 (Activation)    (None, 85, 85, 64)        0         
_________________________________________________________________
batch_normalization_1 (Batch (None, 85, 85, 64)        256       
_________________________________________________________________
conv2d_2 (Conv2D)            (None, 85, 85, 64)        36928     
_________________________________________________________________
activation_2 (Activation)    (None, 85, 85, 64)        0         
_________________________________________________________________
batch_normalization_2 (Batch (None, 85, 85, 64)        256       
_________________________________________________________________
max_pooling2d_1 (MaxPooling2 (None, 42, 42, 64)        0         
_________________________________________________________________
dropout_1 (Dropout)          (None, 42, 42, 64)        0         
_________________________________________________________________
conv2d_3 (Conv2D)            (None, 42, 42, 128)       73856     
_________________________________________________________________
activation_3 (Activation)    (None, 42, 42, 128)       0         
_________________________________________________________________
batch_normalization_3 (Batch (None, 42, 42, 128)       512       
_________________________________________________________________
conv2d_4 (Conv2D)            (None, 42, 42, 128)       147584    
_________________________________________________________________
activation_4 (Activation)    (None, 42, 42, 128)       0         
_________________________________________________________________
batch_normalization_4 (Batch (None, 42, 42, 128)       512       
_________________________________________________________________
max_pooling2d_2 (MaxPooling2 (None, 21, 21, 128)       0         
_________________________________________________________________
dropout_2 (Dropout)          (None, 21, 21, 128)       0         
_________________________________________________________________
flatten (Flatten)            (None, 56448)             0         
_________________________________________________________________
dense (Dense)                (None, 1024)              57803776  
_________________________________________________________________
activation_5 (Activation)    (None, 1024)              0         
_________________________________________________________________
batch_normalization_5 (Batch (None, 1024)              4096      
_________________________________________________________________
dropout_3 (Dropout)          (None, 1024)              0         
_________________________________________________________________
dense_1 (Dense)              (None, 4)                 4100      
_________________________________________________________________
activation_6 (Activation)    (None, 4)                 0         
=================================================================
Total params: 58,091,396
Trainable params: 58,088,516
Non-trainable params: 2,880
_________________________________________________________________
Failed to import pydot. You must install pydot and graphviz for `pydotprint` to work.
Train on 144 samples, validate on 36 samples
Epoch 1/5
 32/144 [=====>...................
…
